$ python lstm_model.py 
Using Theano backend.
Using cuDNN version 5110 on context None
Mapped name None to device cuda0: GeForce GTX TITAN X (0000:01:00.0)
_________________________________________________________________
Layer (type)                 Output Shape              Param #   
=================================================================
lstm_1 (LSTM)                (256, 128, 200)           205600    
_________________________________________________________________
activation_1 (Activation)    (256, 128, 200)           0         
_________________________________________________________________
dropout_1 (Dropout)          (256, 128, 200)           0         
_________________________________________________________________
lstm_2 (LSTM)                (256, 128, 200)           320800    
_________________________________________________________________
activation_2 (Activation)    (256, 128, 200)           0         
_________________________________________________________________
dropout_2 (Dropout)          (256, 128, 200)           0         
_________________________________________________________________
flatten_1 (Flatten)          (256, 25600)              0         
_________________________________________________________________
dense_1 (Dense)              (256, 1)                  25601     
=================================================================
Total params: 552,001
Trainable params: 552,001
Non-trainable params: 0
_________________________________________________________________
Reading: data/dst_kb5.hdf
train_pulses: 1486
valid_pulses: 165
Epoch 1/1000
100/100 [==============================] - 36s 361ms/step - loss: 1.2567 - val_loss: 1.1375
Epoch 2/1000
100/100 [==============================] - 35s 350ms/step - loss: 1.0901 - val_loss: 1.1307
…
